Ex4/Ex04_python/data/vec_y_lda_A1_B2.npy (npy, 101728 bytes, 1 tensors)

array f8 [12700]
00000000: bc94 155f c30e 0cc1 9038 ac5c 63ec 1141
00000010: 4014 308b 3693 2cc1 8389 5fd9 67bf f2c0
00000020: 8b39 b24b 8281 f8c0 2a87 ba29 e70f 3041
00000030: dfe1 9b40 772f 17c1 fbf4 a15b 5b85 3341
00000040: 7dc6 ecde 386d 1841 4124 06ec 4cf6 43c1
00000050: 35e4 8157 3a59 13c1 da2c d3ff d29e 15c1
00000060: 34a8 50f2 f74f 2041 9cc7 d78d 670a 32c1
00000070: 7cb3 1ecc ffbc 2dc1 0296 a936 251c fa40
00000080: e96c 8f13 5ed5 35c1 ea92 bc87 e2f3 3241
00000090: c2ed 2a56 381a 3041 e33c bcde 49bc 04c1
000000a0: a6ac 042c 33ca 1141 1de3 ed67 6418 02c1
000000b0: f903 2cc5 642c 3141 a62e 698c e5a6 16c1
000000c0: 2004 9d11 6c37 0841 b02c c6de 4299 3241
000000d0: 4e85 4dcd ef8b 3941 72d4 4495 6e7a 4ac1
000000e0: 7f09 4b5c 3c4c 4241 f01a f526 116c 2ec1
000000f0: 57a7 e92c bb35 3b41 1d05 cec4 9ee2 48c1
00000100: 9571 45c7 38a9 4341 180e 78ac 1e82 dcc0
00000110: 9a3a 9cc6 6234 0e41 e952 1d15 13eb 3641
00000120: 4e6f dd79 9657 3641 1565 1924 74c0 1041
00000130: 8a99 beda 10ed 30c1 59af c891 a607 4141
00000140: 9744 5529 7f22 35c1 0cb7 a0a6 4e4c 24c1
00000150: 8669 a4f4 f262 2941 b319 2b9c 5658 3441
00000160: 84a3 1d8a 93ba 1e41 9a26 1a29 502e 1c41
00000170: b3ae a9a2 dfaa 18c1 9487 49cd 50b8 1341
00000180: a01a 7978 0eea fcc0 014e 4067 5a1f 3641
00000190: 16c9 1833 4984 3d41 282b bfae 27d8 24c1
000001a0: 1630 e3ba b7ed 2241 45a6 6021 769f 1141
000001b0: c0ff 0726 6a0b 3341 d75f 50cb 0a4c 2e41
000001c0: b7e7 7b75 60fc 34c1 a088 0d8b a9c9 3841
000001d0: 38a3 2204 364e 20c1 f185 fb50 4ae7 3ec1
000001e0: 3672 da33 8878 2441 b04b 1b06 2b46 3641
000001f0: 811c 1f7b 60f3 3a41 ac6b c0df ec94 04c1
00000200: a470 b434 189c f0c0 12ac 12fb 52a6 2141
00000210: 6405 a965 37f2 2741 ac99 1eff f8cf 33c1
00000220: 122b 4a17 4d04 3841 1514 bc71 5707 27c1
00000230: 921a d92b 0ff7 1241 3ac1 19d3 9a64 3c41
00000240: c823 6e93 75bc 3541 fcda fb13 f2f1 2541
00000250: b867 20dc ac8d 2ac1 4e40 9f84 365e 2041
00000260: eb8b 6f3b 8b61 1a41 079c 1068 df53 2741
00000270: 60c2 ff40 5b96 3941 f1eb 8ef7 a781 0041
00000280: 63a7 0bd3 fcc2 0f41 8e19 49bd 2682 11c1
00000290: 6a2f 0133 2690 1ec1 0b70 1867 6c3d 31c1
000002a0: 8c86 e356 74d2 9d40 8477 92dc 9df1 4f41
000002b0: d2a4 84f6 1461 4241 1f7b e4b1 23cd 2541
000002c0: 205b 2eee 96ab 3541 cde0 3b40 7147 3141
000002d0: d8c2 2ab4 31ca 42c1 ebff 155b 337b 2d41
000002e0: 30f0 37d1 c1b4 0141 8604 851b 3968 1bc1
000002f0: 1de8 56e5 b2e8 2141 7f55 67c8 1d42 0ec1
00000300: 14e9 f52e b626 ef40 768e f173 0817 4741
00000310: f8e2 be55 5ddd 2b41 ea5a 42e5 6d89 3341
00000320: 69a4 c639 9039 1e41 e17e 1fdd c1f1 2dc1
00000330: f121 db4c 4a7d 1d41 baa6 4b18 a570 1341
00000340: ce66 e711 35e3 2141 2974 c131 8e0d 17c1
00000350: 0f4f daa8 c308 fec0 cec7 80a1 77d7 2341
00000360: 3878 1a8d aedd 0441 bb2d 43a5 d731 3d41
00000370: b759 54cf aae1 20c1 f17e ad01 fc2c 16c1
00000380: 5e51 4ba2 9a4f 29c1 270a 4326 5661 2ac1
00000390: 65ff e179 5176 29c1 e018 3fee 5492 4741
000003a0: 5c0c 36ca 1cb5 20c1 0237 25a8 9737 1dc1
000003b0: ccc1 8f8e 7794 2641 6a4f b396 b232 0141
000003c0: 4829 cd33 fcfa 3041 cf13 5cff 7fa4 3741
000003d0: 4138 5423 2f3c 2541 fffa 336c 0b58 4641
000003e0: f3fe 79c7 618e 3f41 af27 e8c9 53b7 2c41
000003f0: 8419 9644 630f 2641 e6ec 02c8 e9d6 3141
00000400: b07d 204c 2a9a 2c41 62d9 62a0 da02 22c1
00000410: eaac 47a7 dce2 1d41 f262 46e5 f125 2d41
00000420: 1c1a 7dfb 5a95 3d41 2404 21cb ca32 f540
00000430: 6e94 fc05 90b1 3641 546d cdd4 77f5 19c1
00000440: 9b98 f438 c239 23c1 8c5c 6b4e 14d2 1b41
00000450: 20fd 4d19 8283 2a41 00b0 74f0 375d 3b41
00000460: 3833 4c2b 99af 3d41 925e d53f 3359 cb40
00000470: dcc1 314c 5e3b 2141 8c6a 2922 8c5e 24c1
00000480: c847 ee51 66cb c440 38b5 17c4 9c38 e940
00000490: 5cad 8841 f832 28c1 2002 5bea 6e89 bbc0
000004a0: c1b6 e212 8752 28c1 80d4 f5a1 89db 5d40
000004b0: 223e b5bc c5a6 20c1 6f93 83f7 6188 0741
000004c0: 1ab7 a3e1 53a3 c340 d94f c2c0 72fd 25c1
000004d0: 4615 350f 09c3 2dc1 2713 58f9 c5fa 0e41
000004e0: 7411 66fc 56c0 1ac1 4db6 76ad 2fef 2141
000004f0: 7be6 11b7 357d 0741 ac18 2c41 8836 26c1
00000500: e97d 3254 bb10 3841 a23f af59 7ad8 2bc1
00000510: 3060 7cb9 5449 1741 343c f1b8 7626 4041
00000520: b771 a20d 5bac 3141 13a4 6f9f c706 0ac1
00000530: 2957 2ade 8d40 1e41 dcfe 5f8d 9dfb 3241
00000540: 94e6 c6db e4ff 0ac1 a636 d9b9 67ee 3641
00000550: 50f2 2967 72d1 3141 3098 0706 95c7 3e41
00000560: dc05 f1b6 3754 28c1 e45c 1d85 1bc8 06c1
00000570: cdc6 8a6a 693f 2d41 edff a7d8 c899 3741
00000580: d192 6e7e 5544 1941 7770 19df aa19 01c1
00000590: d201 557b 343c fcc0 de01 72d1 a509 2041
000005a0: 682b 1058 33c6 fc40 d42c 8ede 5e1d 1741
000005b0: d45e 0fc9 249d 3941 f036 75e3 e590 2c41
000005c0: 6cbe e9b1 070f 4441 a086 12ba b14f ff40
000005d0: 6866 aaa8 2335 2b41 4c91 de14 f277 f3c0
000005e0: ef8b cbea 42f0 04c1 59eb 7eee aa09 4541
000005f0: 618a 3cc5 c886 31c1 5ce9 3c12 d7de 32c1
00000600: ac48 f39e ee17 2c41 67f8 829b 9fa1 2141
00000610: a605 c98a 916c 24c1 3e21 3213 cd9d 13c1
00000620: c689 eeeb 3388 2a41 0b35 8c07 f222 23c1
00000630: d76d 1ad6 0e22 1d41 7366 9251 e275 3641
00000640: 869a a6aa 16a6 3241 ec10 7995 ac1c 48c1
00000650: 283a 5057 7a5d 0fc1 a4ef c8b9 f25e 3f41
00000660: 1c3e 7140 be0e 19c1 9e3c b67e badb 30c1
00000670: ae54 c5b1 d26d 2ac1 5ad7 5bc7 58b6 2741
00000680: ea57 3919 b156 15c1 a4cd 9ae8 2281 4041
00000690: 5841 f97f d818 26c1 fbd6 9060 5d83 1041
000006a0: 58fd 3352 1cb0 2341 7fde 22ca bfbe 0fc1
000006b0: 3b54 ba43 a94a 23c1 d030 a1a6 958f 04c1
000006c0: 149c 8047 1d2d 1f41 8506 e3b9 30d6 3fc1
000006d0: 95b9 9f76 61ea 4241 1e5e ac5e ab6a 12c1
000006e0: 933d 0372 58fd f240 76bf 7544 03a8 16c1
000006f0: d2ac bcbc 45a1 0541 3584 e07a d0c5 4a41
00000700: b4b6 0399 be07 00c1 7dc5 ca73 54bf 33c1
00000710: a093 2dd2 1521 2ec1 3020 549e db34 0b41
00000720: ca65 1967 a106 1041 77ad 8c32 fb9c 3a41
00000730: f2b1 53fe b225 2d41 f0af 384f 3ad6 f340
00000740: 4033 0b51 651d 2141 4ec8 ddef 1705 4041
00000750: 82ac 53bc e6c6 1f41 ddc0 1be8 f375 2f41
00000760: 7d20 4f0d ffb1 2cc1 0196 d798 2d49 2241
00000770: 5db4 e4f1 b57d 27c1 bdb7 53aa d05b 1bc1
00000780: f73a 37e3 51c2 f1c0 cee4 53bd 1da0 3c41
00000790: 0fc8 df40 801c 2741 8d80 0807 b14d 3c41
000007a0: d8bc 9f83 8502 4141 c1a7 8065 5958 3341
000007b0: a499 19d3 9200 2ac1 eec3 026a 27bf 14c1
000007c0: 3f47 7444 e1e3 40c1 15e5 bebc be6a 2b41
000007d0: 2cc4 04b8 f44f 2b41 9bb6 f611 b027 2141
000007e0: 22bb 5a6a a7b2 f340 5e58 d07a af8f 35c1
000007f0: eb4b 6173 54ce 2b41 c76a 6313 c14e 3d41
-229848.42142788123 293656.8405007208 -936347.2718511894 -76790.49056962696 -100376.14348051527 1052647.1630024412 -379869.8130946438 1279323.357940017
400206.21770010126 -2616473.8439374273 -317006.585456434 -354228.74982900696 534523.9732716144 -1182311.5540737873 -974463.8986717309 106946.32584532353
-1430878.0764072484 1242082.530221159 1055288.3365925406 -169865.23375747268 291468.79298658145 -148236.5507467025 1125476.7702028735 -371129.3871199883
198381.50860026572 1218882.8702114038 1674223.8019641223 -3470557.166163021 2398328.7210399504 -996872.5760887545 1783227.175440272 -3261757.5375372306
2577009.556806753 -29192.47927667023 247436.3469776705 1501971.0824786967 1464214.4760350767 274461.0352531237 -1109264.8544708216 2232141.1389369187
-1385087.1614573353 -665127.3254449083 831865.4778168655 1333334.6100326597 503460.8848786878 461716.04013881984 -404151.90885041206 323092.2004758057
-118432.90441236878 1449818.403324962 1934409.1995969466 -683027.8413022505 620251.8650145556 288733.53259525105 1248106.1485595554 992773.3970975828
-1375328.4589218923 1624489.5431752577 -534299.0080767637 -2025290.3163379396 670788.1012759868 1459755.0238539986 1766240.4809434714 -168605.6092537319
-68033.5128673935 578345.4903768322 784667.6985551533 -1298424.9965606732 1573965.0909754676 -754603.7221380497 310723.79282037274 1860762.824611737
1424501.5758993495 719097.0390308793 -870102.4299347317 536347.2590274902 432226.80804270384 764399.7032517203 1676891.2539025769 135220.99587807016
260191.6030495717 -286857.6848491662 -500745.5498092087 -1129836.4027166392 1908.61361270436 4186939.723219814 2409001.9259229684 714385.8474462962
1420182.9303948358 1132401.2509136677 -2462819.4075549655 966041.6779022192 145048.22715747496 -449038.27687460964 586841.4479286704 -247875.7228533439
63797.69323249362 3026448.905809219 913070.6674719742 1280365.895543749 495204.05642182246 -981216.9318809175 483154.57505467447 318505.2737260867
586138.534968579 -377699.54858953 -123020.22872382052 650171.8154356421 170933.818898143 1913303.6455563146 -553173.4049404179 -363327.0016383967
-829389.3169808795 -864427.074730222 -834344.7380523501 3089577.8613005728 -547470.3949436056 -478693.9142044635 739899.778440529 140886.3235841946
1112828.2023492623 1549439.9974987393 695831.5690019206 2928662.8453363176 2068065.7792052596 940969.8943493272 722865.6339576696 1169129.7812946378
937237.1486853864 -590189.3132541592 489655.1633593576 955128.9478026314 1938778.9823776549 86828.67459203355 1487248.023385312 -425309.95781489206
-629985.1112411203 455813.07658142666 868801.0494231321 1793335.93928051 1945497.1691314708 14002.400385543038 564655.1488171178 -667462.0667222305
10646.799375329065 51652.89893708605 -792956.1279958892 -7049.433263481158 -796995.5368859397 119.43027543074459 -545634.8685702721 192780.2458564299
10054.655323471456 -720569.3764824822 -975236.5297018669 253784.74675002063 -438293.7464831092 587671.8387963265 192422.7143896109 -727876.1272895536
1577147.3288954443 -912445.1751651654 381525.18113851827 2116845.444861913 1158235.0532599518 -213208.9528496569 495651.4669583911 1244061.5522460258
-221180.60731296672 1502823.7259706645 1167730.4029838033 2017173.0235533826 -797211.8573076087 -186627.43999741145 958388.7080900312 1546696.8463134721
413973.37346867943 -140085.3589352404 -115651.28011036597 525522.9090729316 117859.20899979549 378711.71733923 1678628.785390784 936050.9442536514
2629135.3899457958 128251.1079278239 891537.829425049 -79743.13009506947 -171528.36464604686 2757461.8632482705 -1148616.7704550254 -1236695.0712419366
920567.3104498587 577743.8037335993 -669256.7710649266 -321395.2687459177 869401.9608042769 -627065.014741571 477315.70908519387 1471970.3186401397
1222166.6666046693 -3160409.167757144 -256943.29263348994 2055922.7257222915 -410543.5629319863 -1104826.4949682127 -866025.3472086394 777004.3893725679
-349612.27463281027 2163269.8172242213 -724076.2499485416 270551.34430251986 645134.1605528994 -260055.97369932008 -632148.6322809526 -168434.7063621343
510791.3198265445 -2086448.7261203837 2479298.926749418 -301738.8424544054 77781.52783512165 -371200.81685542257 177192.71715674415 3509152.959976698
-131319.82471411454 -1294164.4523127966 -987274.9105039723 222875.4523088946 262568.3506828217 1744123.1974590698 955097.4967322929 81251.64434117055
560818.6582885757 2099759.873955763 520633.68391294044 1030905.9533367414 -940287.5259943154 599190.7985197903 -769754.9724480022 -448244.1663349828
-72741.11797259362 1875997.7395613673 757312.1267073172 1854897.0274734825 2229515.028312307 1267801.396494374 -852041.4123046887 -339913.853526174
-2213826.5347985323 898399.3686439121 894970.359411364 562136.0350853981 80682.46346543406 -1413039.4797415952 911146.2253516888 1920705.0757357345
