Ex4/Ex04_python/data/vec_w_opt_lda_A1_B2.npy (npy, 6400 bytes, 1 tensors)

array f8 [784]
000000 00 00 00 00 00 00 00 00 00 00 00 00 00 00 00 00
       0.0 0.0
000010 00 00 00 00 00 00 00 00 00 00 00 00 00 00 00 00
       0.0 0.0
000020 00 00 00 00 00 00 00 00 00 00 00 00 00 00 00 00
       0.0 0.0
000030 00 00 00 00 00 00 00 00 00 00 00 00 00 00 00 00
       0.0 0.0
000040 00 00 00 00 00 00 00 00 00 00 00 00 00 00 00 00
       0.0 0.0
000050 00 00 00 00 00 00 00 00 00 00 00 00 00 00 00 00
       0.0 0.0
000060 fd 8b 2c 27 6a 57 84 c0 09 62 47 d4 50 a8 91 40
       -650.9268325309964 1130.0789347795092
000070 81 29 47 d4 50 a8 91 40 0c fb f1 b5 14 c4 7c 40
       1130.0789347762186 460.25505632899944
000080 19 8d 72 ab f2 d7 f8 bd 4d 22 77 98 7b a3 f4 3d
       -3.6152118403724166e-10 3.0033122557068035e-10
000090 dc 87 08 7e 5e 92 04 3e 50 b5 6b a5 91 4a 04 be
       5.987168504607202e-10 -5.90554115020735e-10
0000a0 64 ee 5e 9d 55 f0 f6 bd b6 87 3b d7 ec 12 13 be
       -3.338035658395156e-10 -1.1102486403587864e-09
0000b0 9a 2e c6 a9 7b fa eb 3d 5f c3 04 ca 37 bf f4 bd
       2.0357001231155668e-10 -3.0190778524623156e-10
0000c0 d0 69 a8 75 49 5d 13 3e 26 c3 fa fd 3e 43 13 3e
       1.127156554404459e-09 1.1212355418411404e-09
0000d0 82 b4 99 9f 43 11 cf 3d 68 8f a6 2a 2c 51 04 be
       5.65113407024782e-11 -5.913048569024e-10
0000e0 92 25 29 6a 7d 5f f5 3d 91 81 f0 b0 63 d9 12 be
       3.1101819224285115e-10 -1.0971665275592742e-09
0000f0 06 5e c6 04 ef 3f 0e be 76 a8 d5 55 e4 65 e7 bd
       -8.8038333008271e-10 -1.7024296808847574e-10
000100 c9 a0 db 27 48 7e 1a 3e 87 99 22 51 06 6b 0d 3e
       1.5421123539871647e-09 8.561783801638078e-10
000110 92 2c d0 c1 d1 41 13 3e 3c 98 ff 36 46 fe ad 40
       1.120911147973955e-09 3839.1371383546193
000120 48 60 b8 1f 94 f2 74 c0 d3 54 35 98 df 6c 98 40
       -335.1611630632583 1563.2183540661833
000130 30 88 93 4e ed 2d 68 40 f0 cb 26 5d 39 de aa c0
       193.43521813216057 -3439.112038814921
000140 da 7d d5 96 f2 37 78 c0 6b 2c 52 05 ef c8 60 c0
       -387.4967258777157 -134.27917734193338
000150 8c b9 54 60 0f dc 94 c0 1e 17 75 a8 d9 64 8e 40
       -1335.0150159109353 972.606278338211
000160 76 8e b4 da 79 1a a1 40 e7 b7 4e 74 e1 77 90 c0
       2189.2379967140105 -1053.970170240378
000170 dc 21 60 d1 c5 5b 84 c0 d4 68 7d 2d f1 b1 f3 bd
       -651.4715907583554 -2.866012266833022e-10
000180 0e 54 9d 06 b4 79 df bd 8e 7c 45 78 7f e8 d5 bd
       -1.1450684988190906e-10 -7.970154923876874e-11
000190 2e b4 ec 0b 72 52 f8 bd ae db f8 b7 df cf 1f be
       -3.5393244925531503e-10 -1.8517025412032805e-09
0001a0 3e 89 1c d0 9f a4 f3 bd 60 b9 a0 b6 f1 b0 05 be
       -2.8584419563225136e-10 -6.312966653387677e-10
0001b0 48 b4 06 fc 31 0d 03 3e fa 26 e1 e1 5d de f4 3d
       5.544729051353496e-10 3.03678389621931e-10
0001c0 ff 20 42 e3 3f fb dc 3d ca dc 23 67 28 e7 0a 3e
       1.0543387761340322e-10 7.829791938766951e-10
0001d0 a0 f0 9f 1c 1f ac 0b be c6 05 62 b0 f3 52 de bd
       -8.053713748414858e-10 -1.1031818175609195e-10
0001e0 a8 7b cc 09 e1 e1 e5 bd 4c c9 b6 39 eb cc 61 c0
       -1.5921497878728246e-10 -142.40371404362156
0001f0 96 82 74 d2 af 67 9c 40 24 c3 1c 68 40 08 98 c0
       1817.9217012600616 -1538.0628971571068
000200 c7 8b 09 f3 58 6a b1 40 34 73 5b 6e 11 51 7c 40
       4458.347458454728 453.06675563547765
000210 ca cc 32 d1 57 05 91 40 12 3c 23 d7 89 52 a8 c0
       1089.3357589662069 -3113.2692194948986
000220 88 9a db 75 fd 95 89 c0 1e 54 1c fa 7c d3 40 40
       -818.7487599522146 33.65225149520141
000230 ca 43 f4 bd 16 b2 92 40 77 6d f6 7f 79 61 88 c0
       1196.5222089926124 -780.184326100555
000240 0a 99 84 d6 cd 61 98 c0 66 56 20 12 a7 ad 75 40
       -1560.4510136335762 346.85328877097925
000250 2c 60 aa aa 73 e6 96 40 ec f9 93 c8 88 42 a2 40
       1465.6129557248305 2337.2671552889424
000260 4f 67 f3 c0 87 47 b0 c0 04 0b 0f 7f 2d ab 94 c0
       -4167.530287945482 -1322.7944300032113
000270 3d 22 9b 7b 05 47 83 40 cb 1e a1 f0 c6 67 a6 c0
       616.8776771659683 -2867.888554606446
000280 b0 f4 2f dd bc d7 70 40 82 71 8d 12 51 7e aa c0
       269.48360937817324 -3391.158344669443
000290 50 7d 09 4f ad 08 12 3e 87 8e 99 e7 e8 72 e4 3d
       1.0497108149274832e-09 1.4878508477332186e-10
0002a0 10 b3 51 1e 5c 13 20 3e ac 68 9c 8e 29 97 05 be
       1.87144898410831e-09 -6.28365607135577e-10
0002b0 c0 2b aa f2 9d a8 a6 40 0d 59 35 b5 9c 97 63 40
       2900.3084920099645 156.73787937564376
0002c0 56 a8 25 4f 6e 63 64 40 88 37 e1 74 91 5b 66 40
       163.10721547465317 178.86150592792205
0002d0 67 49 5f 76 a3 a8 a0 c0 8d 79 ad 8e f9 33 86 40
       -2132.3192624833205 710.4968541672439
0002e0 61 61 c6 cf 09 10 86 40 c2 53 7c 4e 33 73 9f 40
       706.004790830466 2012.800104086506
0002f0 72 b3 73 2c b7 3f 96 c0 e0 b7 34 02 cd 7d 12 40
       -1423.9288805082583 4.622852358310382
000300 a5 f7 a5 ad 76 a5 50 40 b4 35 9f 3b 28 e0 93 c0
       66.58536854942083 -1272.0392899395492
000310 3e 5a 21 7f cf 43 68 40 6d 15 9d 9f 3a 0f 89 40
       194.11907917513048 801.9036247512973
000320 e8 82 8a df 42 66 62 40 73 02 ad 15 52 a6 84 c0
       147.19566323330878 -660.790080405843
000330 88 12 05 96 69 81 88 40 bf 82 37 8b a3 28 93 40
       784.1765556713372 1226.1597107575942
000340 ce 02 64 21 39 51 a4 40 a4 67 08 cd 8b f3 98 c0
       2600.6115828755783 -1596.8865243256814
000350 50 98 ad bd 7e 1e 97 40 61 80 96 25 13 6d a1 40
       1479.6237704395498 2230.5373961478913
000360 dd a0 34 53 b7 9c a8 40 2a f0 64 46 86 52 73 40
       3150.358056683194 309.157781976976
000370 cc 5f 35 57 f7 d7 dc 3d 32 1a 22 6a e4 f4 e9 bd
       1.0493247052701803e-10 -1.8885919656850938e-10
000380 73 1a 73 27 e8 d2 16 3e bd 2c e4 42 21 2b 07 be
       1.328523206201104e-09 -6.742914055087514e-10
000390 a4 3f 6f b7 e5 33 84 40 a6 ec 25 b9 af 43 9b c0
       646.4871662799164 -1744.9216047216119
0003a0 bb b5 4b f9 66 1f 98 c0 af 9d e3 c9 63 6e 9f c0
       -1543.8505603627843 -2011.5974498333924
0003b0 18 29 7a a2 38 6a 83 40 80 de 2a 51 64 d4 90 40
       621.2776536506453 1077.0979658792785
0003c0 46 e6 82 a4 f9 10 8c c0 af 97 53 1c 49 28 78 c0
       -898.1218958117031 -386.51784927991224
0003d0 92 0d 9c b3 4c cd 9d 40 14 28 3d dc dc 17 9e c0
       1907.3249039061816 -1925.9656838947021
0003e0 c0 d6 9c 4b c0 9a 99 40 c8 6c 56 a4 69 87 72 c0
       1638.6877884393762 -296.46329149017083
0003f0 9e 06 f8 c0 3c 0d 82 c0 95 63 7b c8 07 5c 8f c0
       -577.6546649338741 -1003.5038003577962
000400 ef ac e4 75 f4 71 95 40 aa 94 ed 7e 48 c3 a2 40
       1372.488730977111 2401.641593384168
000410 20 75 8d 3e 1a f3 86 c0 60 96 8e c8 c6 83 74 c0
       -734.3878146220559 -328.23603110979275
000420 c0 46 67 87 d1 d2 91 c0 48 20 c5 93 b8 4f 88 c0
       -1140.7046180855687 -777.9651255989529
000430 36 7b 51 e9 92 22 61 c0 c6 17 ce 75 1b d3 73 40
       -137.0804335204536 317.19420414452577
000440 3e 75 0d 56 c7 a8 85 40 a0 ee da 09 da 03 9c 40
       693.0973321010022 1792.9629282196183
000450 58 04 32 74 56 30 06 be c1 c9 6f 22 14 d2 02 3e
       -6.457796314976775e-10 5.477521256650469e-10
000460 ca ea 5a 84 6e 6b 0b be 61 82 aa c3 19 59 f0 3d
       -7.980169933806838e-10 2.3789542876085153e-10
000470 3e 7b dd 07 7d 6f b0 40 14 54 63 9c 45 6d 8e c0
       4207.4884012628445 -973.6589896926912
000480 b0 c0 07 ee 48 f4 97 40 67 92 cc e1 56 e1 6b c0
       1533.0712205134732 -223.04185571628042
000490 b4 bb 24 4c 1e 6e 97 c0 ab 14 21 d5 51 13 9e c0
       -1499.5295873393598 -1924.829914585959
0004a0 72 52 88 fb ad eb 86 c0 21 50 46 2d 19 f1 81 c0
       -733.4599524164353 -574.1372933858112
0004b0 ca f0 1b 05 29 29 83 c0 7c b9 f7 dc 90 04 95 40
       -613.1450292761667 1345.1414679247819
0004c0 55 65 14 86 c9 ab 8d c0 50 18 d8 c2 b7 64 91 c0
       -949.4734002679276 -1113.1794542088355
0004d0 86 2d 6d 8e 9f 35 73 40 a7 b6 d3 45 36 ec 99 40
       307.351454187847 1659.053000743888
0004e0 34 ad 02 a9 35 d0 57 c0 ca 50 4a e1 42 6f 95 c0
       -95.25327515851387 -1371.8153125392732
0004f0 b4 de 50 4c f2 b5 90 c0 1c 3b 97 c6 a4 4d a4 c0
       -1069.486619247048 -2598.821827627149
000500 a4 ed 3e d4 35 54 79 c0 3d 65 ed eb 25 74 7d 40
       -405.2631418665062 471.25925820095637
000510 1c a2 b7 07 69 bc 9f c0 dc 54 1f cb 60 5c 77 c0
       -2031.1025685017294 -373.7736312126051
000520 d4 3e ff 2e 6e 48 61 c0 b4 90 48 eb 59 a0 8b 40
       -138.26345014431593 884.0439057988319
000530 fb 61 a6 89 3c cc 70 40 a6 38 39 87 8f 24 01 3e
       268.76477971070534 4.989215832548754e-10
000540 5c c9 73 ed 1d 60 01 3e 37 00 38 58 81 d6 d8 3d
       5.056923446868978e-10 9.035979434715596e-11
000550 df 31 93 55 6a 1d 7e 40 1c d7 8d f9 62 ae 92 c0
       481.8384605169103 -1195.5966550982039
000560 16 6e 41 f8 14 e2 a5 40 c7 42 9b bf 8e 25 85 40
       2801.0409565398104 676.6947013978723
000570 ec 50 cd 26 5b db 42 c0 eb 9d c6 0f 64 a6 94 c0
       -37.71371922517014 -1321.597716430081
000580 72 2d ab af 1a 01 94 c0 e9 d5 64 1d be f1 a0 40
       -1280.2760607477653 2168.871318007576
000590 c3 d7 53 39 ed 29 44 40 1a 58 e4 6d 63 a9 87 c0
       40.327551999987485 -757.1735494460474
0005a0 a8 48 4e 7b 09 b4 9d c0 12 7c af 4f 64 a1 74 c0
       -1901.0092594367834 -330.08699005650226
0005b0 18 a3 ac d4 28 54 62 40 c0 1d c4 78 ce e0 93 c0
       146.62998422353917 -1272.2016325610311
0005c0 38 ae 0e 36 e1 09 6c c0 92 d2 b1 78 34 66 92 40
       -224.30874159686368 1177.5512416634342
0005d0 bb 91 d0 53 72 f7 40 40 06 a6 27 f0 75 65 71 40
       33.93317649539991 278.3412934826632
0005e0 dc dd 69 3a dc 6d 96 40 9d ef 64 ab 6b 03 81 c0
       1435.4650665799772 -544.4275730023979
0005f0 28 99 52 68 0d 80 60 c0 5f 90 b9 92 52 dd 52 40
       -132.0016366589782 75.45816486474494
000600 94 8b 43 ec 10 e9 96 c0 fe 04 97 6e cd f8 a0 40
       -1466.266526275057 2172.4012343591303
000610 a1 d9 36 61 b4 c3 93 c0 c0 a9 6f 8a dc 01 03 3e
       -1264.9261520929651 5.531844052903272e-10
000620 19 b6 22 40 6d 16 05 be 80 9a 74 c8 d9 7a 02 be
       -6.137300670026725e-10 -5.378354575166126e-10
000630 06 82 b8 27 d8 24 6f 40 92 66 4a 99 94 29 8f c0
       249.15138612782192 -997.197558003669
000640 4b 7f c2 53 f1 1a a0 40 94 d5 87 0e 2e 3b 9a 40
       2061.4713421612155 1678.7949773048504
000650 fc 10 30 2d 02 7f 92 40 c4 38 43 8c d5 72 9e 40
       1183.7521255026213 1948.7085428717992
000660 66 10 dc 64 d4 61 8d c0 86 fb dd be 43 5d 4f c0
       -940.2287079994683 -62.72862993086805
000670 71 95 9d 2a 36 43 70 c0 b4 74 99 b6 6b b5 85 c0
       -260.2007242351165 -694.6775943745365
000680 26 13 8d d8 9b 08 61 40 98 c6 e2 7b 81 ed 65 c0
       136.26902415803596 -175.42205614368572
000690 63 9b 7b 01 69 bf 75 40 c8 ec ba e7 12 91 6d c0
       347.9631361797712 -236.53355776318335
0006a0 f3 fa e8 50 26 a3 68 40 e3 1f 0a 6d 8b d3 7a c0
       197.09842725280723 -429.2215395350924
0006b0 67 e8 66 bc 1a fd 63 40 44 b7 7e 2d 4b 48 97 c0
       159.9095136651915 -1490.0734157370907
0006c0 92 30 44 6d f1 6a 9c c0 d6 5f 92 dc 4d 7e a1 40
       -1818.735768380608 2239.1520734540927
0006d0 4c 19 0f 90 db c8 a3 40 bc 6d f1 ac bd 5d 93 c0
       2532.4288334577923 -1239.435230037997
0006e0 f6 e3 67 22 88 c2 77 40 36 25 f0 35 e3 e2 74 40
       380.1582359369489 334.18047136122493
0006f0 ea de bb 41 dc c0 a1 40 c4 e2 5a c1 b5 ad ef 3d
       2272.4301890096294 2.3049182066226607e-10
000700 4e 7d 56 28 ba 1d f8 bd 02 60 72 66 09 2e 93 40
       -3.509357599117912e-10 1227.5091798659419
000710 ea 8f 66 f1 05 2f 86 c0 4a 89 12 0b 84 73 9e 40
       -709.8779018414182 1948.878948487882
000720 73 7d 7f 36 63 1b 8a 40 44 86 da 53 25 53 81 c0
       835.423443790451 -554.3932263443207
000730 fb 04 03 e5 0d 30 90 c0 b2 56 e1 0c 41 14 9b c0
       -1036.0135689231672 -1733.0635256966748
000740 0a e5 e4 c5 ed ac 87 c0 e8 c5 9e c3 52 c9 8b c0
       -757.616100109329 -889.165412178435
000750 e7 72 6b 77 2d 17 90 40 37 6a 26 10 11 1e 5f 40
       1029.794400862587 124.46979144813018
000760 18 3b ae 53 b0 db a0 40 b8 ab 32 50 2d b9 96 40
       2157.8443884322296 1454.2942512433347
000770 a3 e0 38 6a 26 ea 65 40 ca 37 ba 72 bb 0f 79 c0
       175.31718932255635 -400.9832637094629
000780 1c 76 ed 8f 87 a1 53 40 0d a4 18 f3 4b 44 38 40
       78.52389906110369 24.266783898845507
000790 9d a1 ad 55 1c 94 7b 40 bb e0 27 b5 89 ed 90 40
       441.2569176466439 1083.3844801169314
0007a0 9c c1 00 7e cf 2e 82 40 f2 4b 7b 68 2e 3b 8f c0
       581.8513145503125 -999.3976602203895
0007b0 74 05 fa e8 75 32 93 c0 9d 54 f3 8a 98 3c 51 40
       -1228.6151465478733 68.94681047213312
0007c0 23 11 83 fc 5d 71 74 c0 1d 7d 9a 2a 77 8c 90 40
       -327.08544589231514 1059.1163734568465
0007d0 88 1c 7c f0 d2 45 02 3e 02 c0 7c a5 ef 4d f6 bd
       5.318070159327128e-10 -3.2457229047428635e-10
0007e0 a0 4d 1a 56 a5 7c b9 bd 47 ef 4d 17 7a b8 b1 40
       -2.3180198543122023e-11 4536.476918097417
0007f0 35 83 92 c6 66 bc 9e c0 2f 90 1c 65 4e e0 7d c0
       -1967.1003668682654 -478.01913939626223
